models/titanic_model.pt (torch, 4189 bytes, 6 tensors)

linear1.weight f4 [12, 12]
-0.16498415 -1.027217 -1.5528826 -0.2359673 -0.9244995 0.20977913 -0.96842426 -0.8769267
0.16105738 -0.1868658 -0.20909426 -0.15652435 -0.28854185 -0.8064726 -0.78151023 -0.28925925
0.7010344 -0.77002746 -0.8877436 -0.31140634 0.07593309 0.84719914 0.4496915 -0.0951234
-0.09314505 -0.9960104 -0.39279234 -1.0195342 -1.641533 0.7028031 -1.9918791 -0.09355639
0.050893974 0.74776477 0.47928688 -0.96745247 -0.432138 -0.32176894 -0.26978815 -0.1898901
-0.33230555 -0.52201885 -0.36395553 -0.030121246 -0.54514736 -0.41080394 -0.15815721 -0.27687877
-0.87113345 -0.6017979 1.0797824 0.1523319 0.68610317 1.3978723 3.43183 -1.7052188
1.0808474 0.16871974 2.8239045 -0.4803669 0.4901753 -0.2875056 -0.3264432 -0.33112988
-0.6501351 0.56646043 -3.6690137 -0.0643529 1.4163347 -0.20256288 0.34919015 -0.8168578
0.119212314 0.05719897 -0.89960253 0.0014781686 2.1605523 -3.324772 -1.0393136 0.42008093
-0.754454 1.3334808 0.90081894 -1.5817078 -0.41523683 2.0335014 0.83261585 -0.012532518
0.36662936 -0.9402354 -0.6405807 -0.21269916 0.099147215 0.08412124 0.15353312 -1.1525882
-0.15797664 0.8718616 0.7304139 -0.51552236 -0.21757238 0.7457967 2.1865427 -1.5645169
-0.41646823 0.19786902 -0.64384466 0.22142693 -0.09150605 0.12740356 -0.25712913 0.1869861
1.8060882 -1.3993571 1.368607 0.31107917 -0.23325592 1.468105 1.4455786 -0.73624724
0.20743254 0.17167214 0.05665654 0.14305504 -2.0250018 1.4178157 -0.3061513 -0.9891745
0.110088766 -1.830495 -2.2711647 1.6490393 -0.35703462 -0.33566847 -0.3138629 -0.20311327
0.12546189 0.53346574 1.3377638 -0.14245014 -0.18246894 1.9838741 0.90353006 -0.6398163
00000000: 9bf1 28be d97b 83bf dbc4 c6bf 69a1 71be
00000010: 00ac 6cbf 57d0 563e a7ea 77bf 457e 60bf
00000020: 3aec 243e c059 3fbe ce1c 56be eb47 20be
00000030: c2bb 93be fd74 4ebf 0e11 48bf ca19 94be
00000040: fe76 333f 8520 45bf 2a43 63bf a770 9fbe
00000050: cf82 9b3d 0be2 583f f73d e63e 0fd0 c2bd
00000060: d5c2 bebd 8afa 7ebf 141c c9be 1980 82bf
00000070: c11d d2bf e7ea 333f e5f5 febf 7e9a bfbd
00000080: 3376 503d 836d 3f3f 1765 f53e f7aa 77bf
00000090: 3141 ddbe e6be a4be ac21 8abe 8d72 42be
000000a0: f423 aabe 07a3 05bf 6158 babe d5c0 f6bc
000000b0: c78e 0bbf e554 d2be f7f3 21be 0ec3 8dbe
000000c0: 9a02 5fbf 6d0f 1abf 4f36 8a3f e5fc 1b3e
000000d0: 75a4 2f3f 7bed b23f 1aa3 5b40 9c44 dabf
000000e0: 3559 8a3f dec4 2c3e daba 3440 a6f2 f5be
000000f0: 42f8 fa3e ef33 93be 9023 a7be db89 a9be
00000100: 416f 26bf 8d03 113f 1fd1 6ac0 74cb 83bd
00000110: 754a b53f a56c 4fbe 0dc9 b23e 981d 51bf
00000120: 9625 f43d 7849 6a3d 5a4c 66bf 1cbf c13a
00000130: 7d46 0a40 10c9 54c0 3a08 85bf d914 d73e
00000140: e623 41bf 80af aa3f 129c 663f 6775 cabf
00000150: ec99 d4be e324 0240 5026 553f 3155 4dbc
00000160: d8b6 bb3e 44b3 70bf 19fd 23bf cfcd 59be
00000170: b20d cb3d c247 ac3d c937 1d3e 0388 93bf
00000180: a1c4 21be 5232 5f3f 68fc 3a3f 46f9 03bf
00000190: 4bcb 5ebe 88ec 3e3f 51f0 0b40 1742 c8bf
000001a0: 533b d5be 2d9e 4a3e 01d3 24bf bebd 623e
000001b0: 8667 bbbd 1476 023e 6ea6 83be 4979 3f3e
000001c0: e62d e73f 221e b3bf 842e af3f c545 9f3e
000001d0: a4da 6ebe ddea bb3f b808 b93f b37a 3cbf
000001e0: 3269 543e d2ca 2f3e b010 683d 057d 123e
000001f0: a199 01c0 fc7a b53f ddbf 9cbe 8a3a 7dbf
00000200: 3876 e13d a94d eabf c35a 11c0 b813 d33f
00000210: 3ecd b6be bddc abbe a3b2 a0be edfc 4fbe
00000220: 1579 003e 3691 083f d83b ab3f 73de 11be
00000230: 23d9 3abe 96ef fd3f bf4d 673f 00cb 23bf

linear1.bias f4 [12]
-0.35789496 -0.1927647 0.042237077 -0.3605408 1.4925315 -0.54325324 -0.58398646 -1.2216499
0.13179007 0.526249 0.0027775099 -0.3112751
00000000: 023e b7be 1c64 45be c900 2d3d ce98 b8be
00000010: 460b bf3f a512 0bbf 2380 15bf 065f 9cbf
00000020: faf3 063e 41b8 063f e206 363b 735f 9fbe

linear2.weight f4 [8, 12]
0.120845445 1.164042 -0.1141796 -0.21206972 -1.8372718 -0.65599096 -0.32692263 0.18893275
0.13748989 0.702279 -0.020908438 2.1932147 -0.8300593 -0.1717042 -0.2025171 -0.25543368
-0.49475807 0.08880635 -0.9079151 1.2746956 0.87796044 0.054702606 0.56096447 1.373179
-0.20057407 0.4065026 -0.052636277 -0.23692527 -0.35361677 0.004499798 -0.2796583 0.105353974
0.008848666 -0.40424985 -0.026250143 0.6594167 -0.5521591 0.6320303 -0.4971216 -0.42133132
-0.5388076 -0.12387169 -0.4531632 -0.29733852 0.48212418 -0.08806399 -0.41014236 0.49053404
-0.40309256 0.04169633 -0.39698255 -0.065272406 -0.29071802 0.41173592 -0.518169 0.39156815
0.3307362 -0.91764283 -0.025029058 0.2398673 0.061664417 -1.5153316 0.52332807 -0.19282062
0.8898795 0.5164179 0.8578109 -1.035195 -0.8029481 0.14990197 -0.34255618 -2.8512096
-0.37460136 -0.2582626 -0.30720472 -0.19389626 -0.37211916 0.4640131 -0.08291332 -0.024421351
0.41367078 -0.6854595 -0.25889918 -0.37601376 0.4453657 0.08713225 0.20502909 -0.24436855
0.09448039 -0.5010171 0.016973214 -0.75694203 -0.40966502 -0.4306804 -0.49680567 -0.28156
00000000: d17d f73d 54ff 943f fed6 e9bd ce28 59be
00000010: b92b ebbf 06ef 27bf 6762 a7be 9677 413e
00000020: 26ca 0c3e 8ec8 333f 2c48 abbc a15d 0c40
00000030: c47e 54bf 3ad3 2fbe a560 4fbe 34c8 82be
00000040: ee50 fdbe 1be0 b53d 206d 68bf 3a29 a33f
00000050: 04c2 603f d70f 603d 5e9b 0f3f 54c4 af3f
00000060: 4a63 4dbe 1c21 d03e 2399 57bd 8a9c 72be
00000070: 420d b5be 0b73 933b 5f2f 8fbe d3c3 d73d
00000080: fff9 103c d6f9 cebe 8a0a d7bc 88cf 283f
00000090: 4c5a 0dbf bdcc 213f b986 febe bdb8 d7be
000000a0: 4bef 09bf 71b0 fdbd 0205 e8be c13c 98be
000000b0: fbd8 f63e e55a b4bd 2efe d1be 4727 fb3e
000000c0: 2662 cebe c5c9 2a3d 4c41 cbbe 8aad 85bd
000000d0: fed8 94be 0dcf d23e b9a6 04bf 9f7b c83e
000000e0: 4156 a93e a4ea 6abf bd09 cdbc c69f 753e
000000f0: d493 7c3d 63f6 c1bf d4f8 053f c572 45be
00000100: 25cf 633f f733 043f 7f99 5b3f 4581 84bf
00000110: 028e 4dbf e77f 193e 8663 afbe 387a 36c0
00000120: c0cb bfbe ff3a 84be f049 9dbe be8c 46be
00000130: 6786 bebe 2093 ed3e 75ce a9bd 490f c8bc
00000140: a8cc d33e 467a 2fbf 6f8e 84be e084 c0be
00000150: f906 e43e 6572 b23d 25f3 513e c03b 7abe
00000160: ef7e c13d a842 00bf 690b 8b3c f4c6 41bf
00000170: 9dbf d1be 2482 dcbe 505d febe a228 90be

linear2.bias f4 [8]
-0.2602917 0.20018171 -0.058614578 -0.27364305 -0.36501366 0.635374 -0.052658428 -0.5933542
00000000: f444 85be 6ffc 4c3e d715 70bd f11a 8cbe
00000010: 12e3 babe dfa7 223f 5db0 57bd 10e6 17bf

linear3.weight f4 [2, 8]
-0.76069313 0.957487 -0.027486168 -0.1425648 0.5888982 -0.82240087 0.3238808 0.2994724
0.84764355 -0.65807915 0.04743662 0.24772729 -0.7949276 0.7807131 -0.6210882 -0.5102417
00000000: c9bc 42bf de1d 753f ac2a e1bc 82fc 11be
00000010: 08c2 163f dd88 52bf b4d3 a53e 7254 993e
00000020: 2bff 583f e077 28bf e74c 423d 39ac 7d3e
00000030: 6080 4bbf d0dc 473f a3ff 1ebf 339f 02bf

linear3.bias f4 [2]
0.25802055 -0.17759924
00000000: 451b 843e 93dc 35be
